ts_model.pt (torch, 112698 bytes, 16 tensors)

input_proj_layer.0.weight f8 [64, 1]
000000 d7 bd b6 b2 ba dc eb 3f 62 79 00 04 39 e5 cd 3f
       0.8706944933418822 0.23355782218363702
000010 8d ba ae c6 5e ff d8 3f a0 64 b0 32 10 d6 e6 bf
       0.3905865612277147 -0.7136307706852172
000020 a5 ea 57 b9 90 04 d4 bf fa 24 d3 21 cc bd e3 bf
       -0.3127786455149056 -0.6169186268463414
000030 24 c0 9a b5 8c 0a e7 bf 61 d5 ec c1 84 99 e7 3f
       -0.7200377985918789 0.7374900615310872
000040 1e c7 53 2f c6 a8 b4 bf 0d 9f eb ea e8 6e e6 bf
       -0.08070028930140125 -0.7010387981690386
000050 87 8d 76 e0 6a fc e8 3f 41 9b 6c 35 c9 78 c4 3f
       0.7808126815838684 0.15993609531980194
000060 5a a4 fd f1 73 20 b0 3f 28 7d 92 52 a7 ff e7 bf
       0.06299519212702034 -0.7499577152956691
000070 06 a6 10 e0 6b e8 ca 3f 91 7d 46 b0 ec a7 d4 3f
       0.2102179378573938 0.322749302047634
000080 a1 c0 df 95 4c 29 ea 3f 16 30 84 2b 19 92 d7 3f
       0.8175414015986641 0.3682921338047448
000090 86 d7 4a 0d fa d6 b1 bf 88 67 40 78 a9 61 e7 3f
       -0.06968653511543552 0.7306716297782581
0000a0 e0 1e 0a 5a c3 44 e6 3f 05 36 d6 27 c0 a3 e8 3f
       0.6958939322075501 0.7699890878736261
0000b0 db 58 d1 66 dc 7c d8 3f 20 3d 31 38 a5 b8 d4 bf
       0.38262090721890524 -0.32376986014874554
0000c0 af 40 f9 7c ed cd d2 bf 2b 94 8d cc f9 95 ec 3f
       -0.29381882862527225 0.8933075900246242
0000d0 68 da 8e c9 e3 a5 e7 bf 29 03 35 68 86 87 ec bf
       -0.7390002190284806 -0.8915435824675103
0000e0 b4 07 25 dd 3e 31 ed bf a0 86 b0 8a df 9f c2 3f
       -0.9122614211303159 0.14550394317580118
0000f0 d7 3f 01 a1 c8 18 d7 3f d0 60 2e f6 2e 65 8b bf
       0.3608876774133 -0.013376585853436401
000100 e4 18 6e b1 7a 0d bf bf 28 c1 f4 d5 3b 60 e1 bf
       -0.12129942733563187 -0.5429972819165743
000110 97 4b af f1 61 76 e3 3f 6a 56 b5 ba b3 04 e1 3f
       0.6082010002522676 0.5318239828727205
000120 c0 c1 1f 9b dd 05 de bf 2b d1 92 aa 56 4a e7 3f
       -0.4691080107577612 0.7278245288385156
000130 c8 54 f4 93 7e 39 9f bf ba ea 06 11 e8 6d e4 3f
       -0.030492761402531682 0.6384163219984977
000140 5b bc 31 6e f1 49 91 3f 86 92 9d 3f d6 99 da 3f
       0.016883632994389646 0.41563945972874483
000150 76 81 18 d6 ec e6 d4 bf 80 88 e8 6b b1 6d e7 3f
       -0.3265945521143502 0.7321402652344347
000160 d4 e3 cb 80 0b dd ec 3f 90 fa 48 38 39 2a ec bf
       0.901983024173314 -0.8801542376821363
000170 c0 bf bf 4c 0c 05 c9 bf e5 8c 7f 84 86 ea e5 3f
       -0.1954665541411469 0.68487859610141
000180 f0 e2 04 0f ab 6f d7 bf 6e d4 94 e1 e1 ca d1 3f
       -0.3661906859083919 0.2780079558318168
000190 84 16 10 25 55 46 9b 3f a7 1e 2f 46 ce 51 d5 bf
       0.026635485064636658 -0.33311802724754574
0001a0 7f 2e 67 30 85 4b ce 3f 2b 9c 25 30 e1 4b e0 bf
       0.23667969573431333 -0.5092626514787119
0001b0 8a 37 e2 e1 fc 23 cb 3f 5e 41 e2 10 f4 61 8f 3f
       0.21203576116061768 0.015323550000432003
0001c0 2e 52 76 65 92 44 e7 bf aa 93 60 ec 2e d7 e0 bf
       -0.7271205884631564 -0.5262674919837214
0001d0 f0 f1 00 78 c4 c7 cb bf ae 2e 54 5e ad bb e7 bf
       -0.2170339189487005 -0.7416598169670203
0001e0 18 35 49 7f 4f 31 d8 3f 9f 7b ea c8 48 4e ed 3f
       0.37800967626829296 0.9158061908855081
0001f0 7e ea d7 10 0f 3e d0 3f da e0 6c 65 d8 d2 e7 bf
       0.2537877716528455 -0.744487951370526

input_proj_layer.0.bias f8 [64]
000000 b0 5d c2 d7 b7 5a e1 3f 3d 33 5f 90 43 1b be bf
       0.5423239912078568 -0.11760351443008417
000010 e3 17 9f b1 a0 17 c9 bf 2f 21 69 11 29 63 d3 bf
       -0.19603356049464002 -0.3029272718454363
000020 dd 64 43 79 20 ed eb bf fa c5 d3 17 e0 65 eb 3f
       -0.8726961487219814 0.8561859574676298
000030 74 d6 12 e2 c9 9b d9 bf db 4d 95 09 99 14 e2 bf
       -0.40013358190058246 -0.5650143801853419
000040 92 ca 5b 28 6b ff e1 3f b6 ee 1f 88 2f 9d e0 bf
       0.5624290264371032 -0.5191877039610151
000050 d1 98 29 b3 34 7b e2 3f ce 52 0f 0e 6b 6b e5 bf
       0.5775397776858658 -0.6693625712019526
000060 9f 2e a6 bb 85 a3 bb 3f fc 09 72 4d f8 37 e4 bf
       0.10796390372541474 -0.6318322670561538
000070 55 1e fc c3 9b 1f ec 3f 83 ed c7 5b 22 ee cf 3f
       0.878858454497229 0.24945477944843839
000080 31 e5 86 91 7f e4 d2 bf ad 5b 83 1c 2d 23 ef bf
       -0.2951964303170654 -0.9730439717194393
000090 2b af ef 5b b5 cd c4 3f fa 2f 80 d8 71 96 eb bf
       0.16252772320819395 -0.8621148327379153
0000a0 0a 47 b7 a3 d6 66 ef 3f 92 77 de 2e b9 fb e4 3f
       0.9813035199715341 0.6557279506121054
0000b0 01 89 83 a7 37 21 c7 3f c7 08 31 54 ac 3c ed bf
       0.18070121459374636 -0.9136563915601749
0000c0 e8 af 1b d7 bb e9 b5 3f d0 ad 60 88 61 f0 bc bf
       0.08559774400390519 -0.11304292277843975
0000d0 d4 a6 07 e1 be c3 db 3f 21 54 0b 55 e5 17 ec 3f
       0.4338223645741952 0.8779169713039928
0000e0 59 6c 31 cc 61 b9 d7 bf 60 00 64 7b 2c 87 eb 3f
       -0.37068982067802875 0.8602507028554207
0000f0 75 5a fd f6 cf af d1 bf 37 0b 95 c9 c5 fa b1 3f
       -0.2763557350166715 0.07023273631515968
000100 78 6d 67 9d 93 40 e2 bf 4e ac 5e 80 8a 3e ef bf
       -0.5703828882500792 -0.9763844020102483
000110 7f 2c 61 3d 32 29 e3 3f c4 45 15 a3 82 c0 b2 bf
       0.5987788389987968 -0.07324997407456296
000120 ec ea fe d8 11 21 b7 bf 5e 79 ae 4b d0 63 e1 3f
       -0.09034835384128898 0.5434342840342585
000130 16 5a e2 f0 42 b4 c4 bf c6 49 9e 32 a4 47 ee bf
       -0.161751144046051 -0.9462452877654008
000140 06 09 a2 ef 62 15 e9 bf 9a 60 93 6c 52 6e d5 bf
       -0.7838606529551562 -0.33485851862998006
000150 98 e7 d9 fe 42 a5 af 3f 98 60 77 e2 3a 78 cb bf
       0.06180772171951715 -0.21460662897039096
000160 07 6b 01 fe 4f e4 be 3f ee ca 7f 0f e7 11 e4 3f
       0.12067127181346048 0.6271853735655364
000170 e4 4a 65 8c 32 bd e1 bf 66 c9 d8 30 19 2e ec bf
       -0.5543453924277313 -0.8806272462882532
000180 d5 6a 14 6b bc 0f ed 3f 7c 86 6a 93 61 de e8 bf
       0.9081708995248287 -0.7771461371632564
000190 a2 ca f1 79 6c ce e5 3f d1 25 c1 99 94 63 e3 bf
       0.681448209927414 -0.6059058192269565
0001a0 dd cb 30 fe 21 be db 3f f1 f1 c8 8a a9 d5 d8 bf
       0.43347978423406436 -0.3880409102746674
0001b0 34 05 78 bd ba 8a a1 3f f8 89 bb 2e d0 e1 e7 bf
       0.03426154673435136 -0.7463150894876085
0001c0 17 40 21 9f e9 51 ec bf 23 75 94 92 8c e5 c7 3f
       -0.8849990947728682 0.1866927829477528
0001d0 e3 df 30 6a 1e 72 ec 3f d8 dc d0 2b 37 05 cc bf
       0.8889305185357411 -0.21890916480490463
0001e0 f6 6e b2 49 89 c7 e0 3f 07 7a 92 46 e7 14 eb bf
       0.5243574561495439 -0.8463016870844634
0001f0 63 cc e7 40 0f 91 e9 3f 2c 0a 62 47 91 0b e6 3f
       0.7989574687657178 0.688912047786578

input_proj_layer.2.weight f8 [8, 64]
000000 8c 40 34 ba 78 a8 ba bf 29 de 6b a8 38 74 ba bf
       -0.10413317247389581 -0.10333589660501076
000010 85 b6 d3 6c b4 b1 be 3f db 17 e2 d6 25 a7 b5 bf
       0.1198990598383834 -0.08458172317668249
000020 09 61 c2 02 36 b1 a3 3f 9c 0b ae 85 e1 21 8f 3f
       0.038461387478664184 0.015201341526113236
000030 36 15 0a fa f1 21 a4 bf f1 60 f4 98 bb ee ab 3f
       -0.03932148148764229 0.05455576173898347
000040 3b 16 2e 32 2f 27 b4 3f be 8b e5 fc ff fc 8e bf
       0.07872290587518986 -0.015130996613782585
000050 59 4e 13 33 6d d7 9b 3f a0 ed b1 e6 b0 e8 b5 bf
       0.027188974611659898 -0.08558183319285328
000060 db fb 2b 67 6b 6e a8 3f a0 c2 12 40 43 1b a9 bf
       0.04771743425771265 -0.0490361228670555
000070 bc c7 50 fd 5c 45 b6 bf 26 55 1f 76 eb 6a ad bf
       -0.08699589905225386 -0.057456358117330006
000080 47 e5 3f cd 11 ce a2 3f 6a fd 31 2b db 08 b3 3f
       0.03672843580711543 0.07435388378688904
000090 f8 c3 55 90 9b b6 b9 bf 4c 90 27 d1 ad b9 b5 bf
       -0.10044262193493114 -0.0848644862776961
0000a0 04 55 47 c8 e2 aa b0 3f 32 9e 40 6c 2e 20 79 3f
       0.06510751142134913 0.006134206141758679
0000b0 dc ef b0 da d2 14 7f 3f 4d f7 13 96 8c 66 ae 3f
       0.007588218354666023 0.059376138038699545
0000c0 eb 13 57 fc 41 1f a2 bf ef cb 08 73 13 b0 8a bf
       -0.03539472775768345 -0.013031150768346903
0000d0 b6 38 47 81 c2 20 b1 3f b0 53 61 1f 6b 3a b0 3f
       0.06690612465101506 0.06339139476888422
0000e0 cd 6c 20 6c 25 f7 ab bf 68 1b ff 9e b0 21 ac bf
       -0.054619950722747036 -0.05494453373790159
0000f0 df 14 cf ad 24 bb b8 bf ce 1f 59 a0 05 04 bb 3f
       -0.09660557978994032 0.10553012051343488
000100 d3 22 45 de 4b af a8 3f ea 0d c2 4a cc e0 bb bf
       0.0482124050927887 -0.10889889550349321
000110 39 d6 e8 9a 90 d2 90 bf 9a 90 df 85 59 17 a9 3f
       -0.016428241209913905 0.04900626906581458
000120 40 11 bf 92 d5 5a be bf 52 26 e3 a9 20 40 b6 bf
       -0.1185735209720109 -0.08691600940360303
000130 e4 48 d6 5c fa 91 b4 3f 20 91 f5 08 8e da b7 3f
       0.08035244719056639 0.09317863196117004
000140 32 dd 25 25 e0 5c 98 bf bf dc 58 0b 20 86 b7 3f
       -0.023791792170837663 0.09189033772496467
000150 c4 19 ff e2 3d f5 96 3f 08 49 f0 c5 e2 9a bc bf
       0.022419898013845488 -0.11173837025151923
000160 b5 5e fd c3 47 f5 93 bf 10 a0 4d ec 7a e4 a0 3f
       -0.019490357720626423 0.032993165345772124
000170 f1 4e 9b 60 a5 52 bb bf 49 15 d5 cb 52 2e bf 3f
       -0.10672982796250687 0.12180058933616524
000180 44 3f 44 6a e4 ce a5 bf 73 c1 39 f8 1a 12 a5 bf
       -0.04259408757400121 -0.04115375785920863
000190 48 5d 76 1b 19 76 46 3f 4c e3 20 1f b6 51 87 bf
       0.0006854651064029183 -0.011386320900884116
0001a0 51 5c 30 52 01 51 b8 3f e0 d9 ed 5e 30 67 a1 3f
       0.09498604065480377 0.03399039419939576
0001b0 ba 7e 45 25 3c 6f bf bf b4 bb b0 01 00 7b 91 bf
       -0.1227910605425632 -0.017070770362064017
0001c0 9c 65 48 d3 92 f4 bd 3f d9 24 e5 1b 77 2a c0 bf
       0.11701314600249763 -0.1262959371763717
0001d0 26 d4 69 6a 6c 69 b7 3f 09 93 20 24 33 1d ad bf
       0.09145238492949712 -0.05686340156561271
0001e0 8c b3 f6 5d b0 54 b2 bf 7b 2d bd db 73 d7 b5 bf
       -0.0716047505763539 -0.08531879534455371
0001f0 ef eb 2c e0 6c 6d a3 3f f7 04 bc fe 3c 12 7c bf
       0.037944223752184196 -0.006853330861987353
000200 c3 e7 ee d0 af 30 a4 3f 5e 32 7a 23 0b 72 b2 3f
       0.03943395066694635 0.07205266586442735
000210 df a8 97 8a 59 be a1 bf d5 c6 cd 74 6d 27 bc 3f
       -0.03465537850191124 0.10997661687522549
000220 72 16 81 8f 16 08 b2 bf a7 6b 21 76 fb 95 b8 bf
       -0.07043591502687166 -0.09603854784056286
000230 47 07 c5 cc c6 63 be 3f 30 f4 45 44 e9 d0 b5 bf
       0.11870996951350064 -0.0852189819033391
000240 c1 5c 29 9b 95 04 96 3f 5a 3d ec eb a9 98 a5 3f
       0.021501863093672528 0.04218035702626351
000250 67 a2 b6 30 44 68 92 3f 34 1c d5 ab cf 7b bb 3f
       0.017975869630080157 0.10735795922401864
000260 1c a5 37 46 9b 43 b2 3f da bc ab 29 bc 97 b6 bf
       0.07134409393588154 -0.08825279252390619
000270 8c 21 c1 ba e6 e9 b1 bf f8 4a 00 3c 48 2d b3 3f
       -0.06997530040201222 0.07490970101234129
000280 2f e2 bf 4d ac 14 8d bf 42 e9 4f bb aa 73 99 3f
       -0.014199586985328498 0.024855296785952115
000290 81 08 6c 4e f2 3b 7e 3f c2 01 7f 48 b8 76 b2 bf
       0.007381388196110562 -0.07212402124333209
0002a0 fc 54 01 76 f2 25 a2 bf 4d c8 32 4f 71 45 ac 3f
       -0.03544576349728776 0.05521730510498966
0002b0 95 e6 2a e5 60 2a b4 3f 82 04 4b 13 cd 24 b6 3f
       0.0787716445437588 0.0864990398504393
0002c0 ab 34 ed f2 42 12 aa bf 78 e0 78 f8 68 e9 b4 bf
       -0.05092057433521665 -0.0816865545865556
0002d0 ef 4d 7e 5c 1b f5 b9 3f c3 a2 80 c2 9e 48 aa 3f
       0.10139628418101386 0.051335297816256474
0002e0 09 f1 62 8b ce d9 a0 3f 8e ee 3e ce d7 df bd 3f
       0.032911734118416254 0.11669682297991299
0002f0 40 43 dc e7 dc 47 85 bf fb 27 e4 68 7c 50 96 bf
       -0.010390973878686816 -0.02179140463071148
000300 97 63 ed 3f 08 6a a2 bf ab 8a 95 af 13 ab bb bf
       -0.035965211681008906 -0.10807917629930823
000310 b0 a2 55 95 eb d1 80 bf af 13 78 cf 95 e4 a2 3f
       -0.008212891096904457 0.03690021665173703
000320 27 5f 14 b5 2e e3 a1 bf 1d 32 b6 cf 59 e8 a7 bf
       -0.034936389545860806 -0.04669457111876716
000330 cc 8d 8e 3a 4a 6c a2 3f d6 eb 0f dd 30 88 b3 3f
       0.03598243679814636 0.07629685780550174
000340 23 2c 81 c8 f7 e6 b4 bf 9a 18 95 8c 41 10 b7 bf
       -0.08164929051524487 -0.09009179765880262
000350 d9 57 56 95 d4 8d b1 3f c6 d4 22 35 a2 30 b2 3f
       0.06857041021279943 0.07105459019915647
000360 41 35 03 72 df 10 ad bf 81 ef 54 8f 52 a0 a9 bf
       -0.056769354503197984 -0.050051288601451034
000370 6d 6b cf c4 86 90 b5 bf 79 a3 ac 42 5d 99 b4 bf
       -0.08423654847085311 -0.08046515348236295
000380 9e b6 90 65 08 0d a2 bf 90 3a 06 2d 6a 34 ba bf
       -0.03525568237124087 -0.10236228560664018
000390 34 91 4a 2a 1b a6 aa 3f 93 ad 6f 7c a3 cf a5 bf
       0.05204853907824472 -0.04259978193280314
0003a0 00 cd b3 45 89 28 b9 3f a5 d6 d6 93 64 44 af bf
       0.0982747836276765 -0.061068671271113296
0003b0 ea 5f dc 15 20 5a b7 bf e0 24 89 44 eb 7f 81 3f
       -0.09121895345413092 0.008544767407459408
0003c0 63 26 f2 72 30 fc 8f bf 9b 6a 10 3e 21 d5 ad bf
       -0.015617731578703336 -0.058266676737010324
0003d0 8b 6d 79 8a aa f3 b6 bf e3 de 1e 93 10 f2 6a bf
       -0.08965555077286617 -0.00328925359005071
0003e0 f5 34 03 0c d7 fc b9 3f 89 10 4b 7f 24 fe 88 3f
       0.10151428263926106 0.012203488478356188
0003f0 db 3a 00 36 33 f7 ab 3f 52 22 8b 8f 7f 60 a5 bf
       0.05462036165419245 -0.041751848480605105
000400 db a8 22 cd 76 df 9b 3f 16 37 e0 d5 db 12 93 bf
       0.027219635267706415 -0.018626627854295107
000410 66 f2 6e 0f bf b1 82 bf 28 df ec 47 27 42 a4 bf
       -0.00912808671807248 -0.03956721070284025
000420 1b d6 aa c6 b8 3f 91 3f 56 c0 66 91 e6 69 b9 3f
       0.016844641805354593 0.09927216577375594
000430 74 52 d1 30 4a 4f b7 3f 46 e4 be 37 2b 42 a6 bf
       0.0910536164458991 -0.04347357802857536
000440 11 8b b5 b3 0f ff be 3f 63 4a 58 31 fc 96 b2 3f
       0.12107942712240695 0.07261635021885975
000450 e2 96 27 e1 be ef b5 bf b4 1a 0f e2 ef ba 9b 3f
       -0.08568947789134598 0.02708029572729727
000460 2a df 93 36 8b ba a0 3f 83 59 59 53 84 0f 67 3f
       0.03267321625929605 0.0028150162204766973
000470 34 27 5a 51 86 e2 aa bf 3e db f7 d8 06 e0 b4 3f
       -0.05250949614590042 0.08154337689471178
000480 d9 99 3f d3 8d f2 aa 3f 69 c8 28 45 42 98 a0 3f
       0.05263179019657444 0.03241164297323069
000490 25 b8 43 f8 9a db c6 3f 86 d8 ef 70 2c 4a 94 bf
       0.1785768234471458 -0.01981419982254142
0004a0 60 94 c6 88 e0 2e c3 3f 21 eb e7 7c 56 9b c3 3f
       0.14986807516575862 0.15317803477213324
0004b0 cc c7 76 3b 34 b6 a8 bf 6f b1 1d 9f 3a 52 86 3f
       -0.048265106447970746 0.010899026852450004
0004c0 79 be 5b 2d 04 6b c4 3f a6 7e 94 e5 b0 e1 a3 bf
       0.15951587881817256 -0.038831260704907763
0004d0 53 4f e7 c8 c6 ae bb 3f 1d 0d 04 db 7e 6c a5 bf
       0.10813562779304435 -0.04184338019879361
0004e0 03 d8 f3 91 c5 d8 af 3f 64 74 1a db af 85 b0 3f
       0.06220071226736936 0.06453990077211952
0004f0 66 c5 21 51 5f 2a 5d 3f 56 f0 c1 4d 8d 94 b5 3f
       0.0017801218823730535 0.08429797314050921
000500 fe 6e db ec 17 ad c0 3f 8d 3b 04 5e 56 1f b3 bf
       0.1302823931244958 -0.07469692035031823
000510 fc f3 fc 4a 4f d0 a6 3f 8f 3f f3 92 69 c8 b9 3f
       0.04455802717573218 0.10071430051470841
000520 1d f8 57 37 20 6c a9 3f 57 4e 35 5e c5 08 b3 3f
       0.049653059726537864 0.0743525843620828
000530 31 95 b2 8d f2 84 92 3f f9 55 42 bc 20 57 b9 3f
       0.018085279367956623 0.0989857158295634
000540 59 5b 39 3f 64 1f af bf e0 d5 75 e5 f4 c2 a8 3f
       -0.06078637382295566 0.048362401018419154
000550 92 7a d0 c0 f3 6f 98 bf 7b 62 ef 20 c4 ff 96 3f
       -0.023864563601927964 0.022460045347403295
000560 1c 65 f3 03 72 db a6 3f df 56 1a 47 8c 43 c2 3f
       0.044642985327025125 0.1426864001447745
000570 51 5a 81 5d 32 96 ab 3f fe c1 e2 73 43 a6 ab bf
       0.05388028518125466 -0.054002864738666986
000580 f9 04 e8 2a 54 7c 94 3f 2f 4d 35 28 f1 05 c0 3f
       0.02000552665595465 0.1251813360528131
000590 ca d1 6e e3 4f 85 22 bf 2c 54 5b 9e a3 b2 b0 3f
       -0.0001413021106749914 0.06522581688052814
0005a0 33 75 1f 23 d1 e3 a2 bf 71 71 91 d6 a7 51 b3 bf
       -0.0368943553328144 -0.07546471584777749
0005b0 df 6f e8 4d 11 f6 c1 3f 36 45 bb 6f ad 00 34 3f
       0.14032188705539192 0.00030521616257058197
0005c0 a4 9b 97 8f 6d 79 bc 3f 2a d5 ab 87 c1 5c a6 bf
       0.1112278438155117 -0.043676421939304724
0005d0 45 c7 2f 5b be 2f a8 3f 76 22 35 9d 25 64 9f 3f
       0.0472392545997438 0.030655467720210848
0005e0 fe 6a 2a 9f d9 2e 83 bf f4 bf dc c1 1a 28 8e bf
       -0.009366703195430311 -0.014724930802543647
0005f0 0d 1c 19 ea f9 f9 b0 3f 12 3c d6 6f 6d d9 9e bf
       0.06631433453831921 -0.030126295042972435
000600 22 fa e3 72 c5 7e 62 3f aa 55 eb ec 3d bb b2 bf
       0.0022577148839666586 -0.0731695846000863
000610 7a 2c 2e ef fc 31 b9 bf 48 8f 82 f8 8b 96 a4 3f
       -0.0984190067230645 0.04021108063287088
000620 ac 2d 00 1a 56 06 bd 3f 29 5f 29 52 ae 53 ad bf
       0.11337793478758468 -0.05727905991505928
000630 81 39 69 e3 ff 00 ab bf 4b c5 c1 ae 02 54 a6 bf
       -0.052742001066337536 -0.043609699089652475
000640 fa 5b 39 b6 86 bc ba 3f 2f b9 fc e4 f9 8e bb bf
       0.10443918179349501 -0.1076503929186614
000650 f6 75 3f 89 3d 65 9a 3f f3 66 56 d4 00 55 9f bf
       0.025776826383539807 -0.030597699127247812
000660 45 8a 40 99 b8 4b 95 bf 17 a8 e2 78 0e 32 a1 bf
       -0.020796665529028386 -0.033585026031986036
000670 92 2a 6e f5 26 6b 9d bf 8b 53 a4 33 8d 17 b6 3f
       -0.02872906563747308 0.08629686842716759
000680 a4 32 9b c4 0b 97 a7 3f 61 3c d5 a5 8b 0d 70 3f
       0.04607426428774389 0.003919167994651835
000690 d3 bc 65 57 2a 7c b0 bf da 18 b6 8e 89 eb 77 3f
       -0.06439461358762637 0.005839860280849341
0006a0 da 30 6e 0d 73 53 ad 3f b9 80 83 4b 59 e9 bb 3f
       0.057277293576676505 0.1090293702468469
0006b0 92 a3 d3 a3 38 dc a2 3f 49 d7 d9 82 12 60 bc 3f
       0.03683640479886842 0.11084094709971483
0006c0 bb 2e c3 5e 86 e2 73 3f fa 64 06 c9 51 ee b7 bf
       0.004854702838382681 -0.09348021657787689
0006d0 ed 73 06 59 8c ed a1 bf 10 03 b7 ca d3 ca a8 3f
       -0.03501547419293858 0.04842244958445552
0006e0 ac 07 78 97 6c 53 92 bf 1c 2d 69 92 ac 02 a9 3f
       -0.017896363015104264 0.04884852683297877
0006f0 a2 d4 27 1c 2a 34 c2 3f 32 fa 8c fe 6b 54 a3 bf
       0.1422169339636286 -0.03775346262272129
000700 a2 24 45 e3 2e ad 9f bf 84 de d2 90 88 fa b2 3f
       -0.03093407880922839 0.07413533721671156
000710 03 70 51 d3 74 fd bc 3f b2 d0 0a 0b 0d 39 c0 3f
       0.11324243697293927 0.12674105681583608
000720 9c 15 2d d4 08 88 7e bf 3b 22 6f 63 3b 1c a4 bf
       -0.007453951346922418 -0.039277892959550496
000730 50 ca b9 54 70 a4 b4 bf f9 b6 04 17 6b 19 91 bf
       -0.08063413685321419 -0.016698525695736575
000740 ec 46 3f 09 ee e6 76 3f 92 67 ca c7 a2 c8 b0 3f
       0.005591325596428592 0.06556146028233759
000750 38 68 81 d2 a9 1c ba bf f2 0e eb 65 5a 15 b4 bf
       -0.10199986829084728 -0.07845082271802165
000760 b7 29 7d 30 e0 dd aa bf d2 27 7f cd 7c ab af 3f
       -0.05247402755647406 0.06185522087578445
000770 85 a9 07 50 18 4a b5 3f 14 a1 13 60 00 15 a6 bf
       0.08316184953551982 -0.04312897846995348
000780 06 8a 0a af f7 dd b6 3f 78 af 98 5e a0 80 81 3f
       0.08932445548501997 0.008546116721013894
000790 fb a7 f6 2f 6c 91 b2 3f 30 cb a3 a3 bd 10 b5 3f
       0.07253147288307098 0.08228669400322697
0007a0 0d 7f 3e 04 65 09 ac 3f 8d fb 59 ae 01 71 a9 3f
       0.05475917507942372 0.049690296681538994
0007b0 d9 ce 85 14 e9 1c c2 3f 69 08 4e a3 fe d2 aa bf
       0.1415072775085864 -0.052391011652631665
0007c0 40 cd db 65 61 07 ad 3f 31 41 05 12 bd 6b be 3f
       0.05669693344489213 0.11883145990328071
0007d0 8a af 7f a1 ac 9f c1 3f 78 4b 0b b5 7e 20 a5 3f
       0.13768537412340393 0.04126354179393038
0007e0 56 10 f8 45 69 a5 a4 3f 5c ba f0 e5 c5 e2 c0 3f
       0.040324487486970526 0.13192056396060792
0007f0 6a fd 98 85 65 8f 63 3f 50 e8 66 ee 2d 74 8f 3f
       0.0023877127503337163 0.015358313405943985

input_proj_layer.2.bias f8 [8]
000000 c5 c1 2c b1 49 78 bb bf ab bb 87 05 30 b8 a7 bf
       -0.1073041970782987 -0.046327114749025476
000010 2a 40 dc d4 fb 28 ae 3f c3 c4 13 17 66 2b b8 3f
       0.058906430944375934 0.09441221297653883
000020 5b 60 4f 24 d5 e8 9d bf ab 09 cf c3 69 06 9b 3f
       -0.029208498326483184 0.02639165170308792
000030 ea 2d 21 f1 8f e4 76 3f 1b 36 dc e3 36 3a b4 bf
       0.005589067719550903 -0.07901328146928004

condition_proj_layers.0.weight f8 [64, 1]
000000 25 4b 10 13 d1 7f 97 3f c4 37 ef f7 a3 66 dd 3f
       0.022948519505074167 0.4593896790728389
000010 e9 7c 63 70 cd 38 e3 bf 87 5f f0 4b c2 11 e8 3f
       -0.6006838984575583 0.7521678431685225
000020 05 41 db a8 df 32 9a bf b2 76 b3 71 1c 3d dc 3f
       -0.025584692650967095 0.44122992614380074
000030 c8 c6 9b e3 6d 90 b4 bf 2a 93 25 7d ef 65 ec 3f
       -0.08032881552551452 0.8874432987473473
000040 f2 2d fe 82 d5 04 e8 3f 19 f9 87 c7 4f 66 ec bf
       0.7505900915579657 -0.8874892136662168
000050 42 32 b0 68 ab 1b e3 3f df 4f 3f ad f5 95 eb bf
       0.5971276325886452 -0.862055624364526
000060 c3 76 84 16 a2 88 d1 bf 8f a1 bf 11 b8 f4 d4 3f
       -0.273964426030812 0.3274364636731883
000070 f5 56 8a 19 d3 73 e0 3f 06 f9 79 11 d5 c1 e5 3f
       0.5141387461505632 0.6799111691796333
000080 42 73 fb 16 1f 34 ee 3f 5d 21 43 a9 2f d3 cc 3f
       0.9438624810096388 0.2251948906398508
000090 ae 15 3f 29 c9 80 77 3f ba 0f cd d3 ae b6 ed 3f
       0.0057380540710644645 0.9285501610506721
0000a0 a4 69 71 2f c1 bd c4 3f 0d 50 02 89 e8 e7 e3 bf
       0.16204085175088523 -0.6220591236074157
0000b0 b6 9b cb 79 0c 91 ef bf f2 b4 f9 2d 54 9a ef 3f
       -0.9864561442199065 0.987588968082177
0000c0 67 c2 13 39 89 50 be bf c1 00 68 40 93 a4 da bf
       -0.11841638225065197 -0.4162948731391332
0000d0 68 db e6 42 66 8b f0 3f d9 5f ad e3 1d c6 e5 bf
       1.0340330708838454 -0.6804341742345016
0000e0 ae 8a ba fe 66 19 cf bf a9 6e 80 5f a1 7b e6 3f
       -0.24296271741794356 0.7025915971057276
0000f0 97 d1 e7 07 7d 9e b9 bf 57 da 08 99 10 34 97 3f
       -0.10007459109312432 0.022659549084176635
000100 93 d3 84 ae 0e 52 e9 bf 1a 01 c9 f3 ee 04 e2 3f
       -0.7912667664119105 0.5631022225789224
000110 4e cf eb 00 f3 a1 e6 3f 1f f1 dd 36 ef cc d5 3f
       0.7072691934576854 0.34063320501424416
000120 01 75 fb e4 e7 40 ad bf 79 e4 5c e5 b8 37 e0 3f
       -0.05713581724351436 0.5068020324462302
000130 01 a5 94 58 2a 1e e7 bf b9 6b f2 d7 db 6e e8 bf
       -0.7224323015299491 -0.763532563945197
000140 32 bb 7e db c9 e1 e0 bf 61 d9 e2 d8 82 1e db bf
       -0.5275620734226776 -0.42373725109373167
000150 fa 59 b9 fc c7 3c df 3f 92 bc 20 d7 ae 03 e1 3f
       0.48808479003983474 0.5316995813099246
000160 c4 2a 51 d1 33 5b cc bf c1 21 03 fa fb c5 e3 3f
       -0.22153327675399315 0.6179180033732835
000170 df b9 38 53 3e 38 95 3f 43 17 6a 46 46 8d e9 3f
       0.020722364263002887 0.7984954238206473
000180 84 d5 3d 79 92 e9 e7 bf 7a 1c 20 a1 53 ed d9 3f
       -0.7472622268675626 0.40511027083306994
000190 73 4c ca 68 b5 f8 94 3f 0b da 69 b5 13 bd ec 3f
       0.020479998131645204 0.8980806868774506
0001a0 c7 36 c7 43 52 9c e5 bf 43 82 51 b9 14 66 dd 3f
       -0.6753321956436701 0.45935552690028575
0001b0 00 4d b3 23 d7 19 c3 3f f8 71 30 ec db f7 e0 bf
       0.1492260860746697 -0.5302562344618869
0001c0 86 63 27 ed 57 ee df bf b6 ea 11 30 56 4b d8 3f
       -0.4989223304706275 0.3795981854852174
0001d0 e4 1a a4 d9 e5 0d d8 bf fd b9 84 2d f8 86 ea 3f
       -0.3758482575798736 0.8289757622749786
0001e0 3e b3 76 65 ee f8 e1 bf 95 1d ed 8b 2b 19 e1 3f
       -0.5616371137344698 0.5343225224432212
0001f0 95 f8 f5 ff e0 83 e4 bf cc 26 0d 0b c6 44 ca 3f
       -0.6410984992251253 0.20522380389802775

condition_proj_layers.0.bias f8 [64]
000000 e4 16 f8 42 7c f6 d9 bf 1f a3 31 cd 32 37 d2 bf
       -0.40566927471114256 -0.2846190456244119
000010 79 9a f0 d3 54 3a d5 3f 07 08 78 97 1a 32 d3 bf
       0.3316852636075179 -0.29993309776193694
000020 96 d9 3f 54 96 71 e6 3f d9 47 5b 30 81 6b d4 bf
       0.7013656278129925 -0.31906156275101477
000030 f6 60 e1 ac 94 7a c7 3f 2e 71 d5 cb 89 a2 d7 bf
       0.1834283680098065 -0.3692955484928174
000040 43 f7 90 2b 5a 38 da bf 82 a3 1e b0 d9 11 e3 3f
       -0.4096894669963726 0.5959289970243022
000050 0a c6 f7 f5 71 21 d3 3f d9 e5 2a 31 33 6d ee 3f
       0.2989163305311143 0.9508300743393036
000060 95 42 31 ad b4 a2 dd 3f c4 89 60 ed 6b a3 eb bf
       0.46305577195475084 -0.8636989246627356
000070 e9 78 bb 73 37 a4 e7 3f 4c 13 07 32 6b a7 de 3f
       0.7387959728619339 0.4789684284735827
000080 aa f3 9c 2a c0 9e d7 bf f3 fa fc b9 69 6c d0 3f
       -0.369064370741223 0.25661700404081883
000090 e6 c4 ad 4a 64 36 c7 bf 52 74 c2 94 65 3c ea bf
       -0.18134740492272455 -0.8198726563893024
0000a0 15 7e c0 d6 82 9e 78 3f 60 34 84 c4 a9 48 f0 3f
       0.006010542954782779 1.0177400280402011
0000b0 60 07 60 06 df 31 e2 bf fa 9f 3c 26 57 ce cb bf
       -0.5685877918733517 -0.2172345101073459
0000c0 ff 95 8a 12 5d ec d6 bf 54 48 5f 6b 69 8b d6 3f
       -0.35817648707083544 0.352259020667707
0000d0 fa cf 79 e0 82 1f af 3f 81 63 9f ab 48 fa c1 3f
       0.06078728666480511 0.14045055751810412
0000e0 bc 1d ba 1a 9a 9a b8 bf 84 1a 05 1f 4c 97 73 3f
       -0.0961090388537888 0.004782960270239504
0000f0 bb 3a dd ee a5 7e f1 3f 6f 48 ed da 1f 57 c6 3f
       1.0934199648506098 0.17453382673062687
000100 a1 90 7c e1 69 02 e6 bf 5e 78 fc 6c c4 e2 e4 bf
       -0.6877946285280992 -0.6526815537106463
000110 5d 1b d5 82 e1 0b da bf a7 74 d8 4a f7 17 d8 3f
       -0.4069751527462609 0.37646276768811976
000120 3a a5 7b bd d2 ad e5 bf fd ca 42 c6 06 a6 e1 3f
       -0.6774686528052947 0.5515169021876712
000130 ce 51 4c 34 a0 69 e8 3f 31 f9 2d c7 66 49 ca 3f
       0.7628937741706581 0.2053650353008805
000140 0a 13 9b 78 3c c4 b1 bf f7 85 25 6d ee 13 e8 bf
       -0.06940057701565308 -0.7524330264824916
000150 d7 1b d4 b6 88 65 95 3f 14 52 71 94 9f a7 cd 3f
       0.02089513412377272 0.2316779589479131
000160 83 cc 9e 98 79 35 d2 3f 33 8e 2d 20 9e 13 ed 3f
       0.28451385406805957 0.9086447361446005
000170 6e 34 4e 40 9e ac ea 3f 35 3c f9 c7 26 dc d7 3f
       0.8335715537993005 0.3728119805209105
000180 18 5c c3 dc d4 67 eb bf 6b eb 22 d5 f2 63 d7 bf
       -0.8564247428684011 -0.36547537626363774
000190 53 9a 32 0e 41 6f e5 3f 4e 48 33 30 99 be ca 3f
       0.6698308255479993 0.20894160131007528
0001a0 cd bc 49 0c 0e 1c e0 bf 68 a8 c6 03 c8 88 bb bf
       -0.5034246673584676 -0.10755586712062526
0001b0 0c fc d7 a1 1b a7 c7 bf 13 aa 5e 56 bd 68 bd 3f
       -0.18478722956203375 0.11487944944989463
0001c0 f3 0b 61 bf 6d 53 c1 3f 8c 95 85 19 1e bd cd bf
       0.1353585419147688 -0.2323339104288319
0001d0 fd e2 98 dd 90 47 ec bf 9b b8 f2 11 da 23 b9 bf
       -0.8837360694952562 -0.09820330560862305
0001e0 88 8f d6 62 4f 87 8b 3f 8c a7 e8 6b 4b 8b bc 3f
       0.013441677287864953 0.11150046715252254
0001f0 3f 68 b8 12 9a 2a e9 3f ce 5d d7 30 6d c1 ef 3f
       0.786450420916715 0.9923616365367083

condition_proj_layers.2.weight f8 [8, 64]
000000 49 a7 5e 68 c9 33 93 bf 36 a2 8d 6c 57 6f b0 3f
       -0.018752238269065278 0.06419893646455752
000010 4e 67 6b 45 2d 02 a4 3f 56 cf ca c8 65 da 80 3f
       0.039079107975068625 0.008229060354416323
000020 b9 e2 3f a9 c4 e4 64 3f aa 6c 97 d7 53 64 af 3f
       0.0025504914319721375 0.06131231314403725
000030 1d bb 7e 9d ed 0c c1 bf da 69 14 32 bc a1 be bf
       -0.13320703687846783 -0.11965538237237841
000040 77 86 6c 11 60 80 a4 3f 06 dc 52 50 ed 92 b8 bf
       0.04004192555136126 -0.0959919282057485
000050 b3 2c fa 83 9d 34 a0 bf 38 54 6d 3e 3c d0 b0 bf
       -0.03165142284441327 -0.06567741893862056
000060 c4 d3 fb 8b c2 54 90 3f 20 12 d8 db 51 6d a4 bf
       0.01594833354370785 -0.03989654358523276
000070 1d 5b d4 16 4a bc b1 3f 79 f2 30 d8 e3 18 b4 3f
       0.06927931840287412 0.07850479152780022
000080 6c 01 5c 75 7f f1 a1 3f 31 41 1b 5b f6 4f b9 bf
       0.03504560763940642 -0.09887637829092878
000090 fe d6 b2 92 6e 3c a9 3f 90 40 49 bd 1e 1b a0 3f
       0.049289184005301565 0.03145690975782245
0000a0 4e a7 9a 35 16 c9 8e bf 08 59 94 b8 a4 1f 9a bf
       -0.01503198004805353 -0.025511335149610154
0000b0 10 56 64 5e 6e 58 be bf f6 66 a5 56 ed df b2 bf
       -0.11853685192576102 -0.07372935643561704
0000c0 8c 6e 78 2a b0 1c b1 bf 02 87 36 99 ec eb bb bf
       -0.06684399639964961 -0.10906866779853533
0000d0 90 15 af a6 75 56 a4 3f 4d 85 53 eb 3e 97 b4 3f
       0.03972213420596937 0.08043282742757647
0000e0 3f 36 92 71 4a e7 b1 bf 48 b1 28 81 6f a3 bc bf
       -0.06993546745999256 -0.11186882880492022
0000f0 cd 58 1e d9 db 82 bb bf 60 5e 6a 65 10 4d 97 3f
       -0.10746549654718081 0.02275491351119141
000100 01 eb cb 35 84 c1 b7 bf 09 68 98 4b 4a ad a7 bf
       -0.09279657662765929 -0.04624397442621848
000110 fc 66 17 a8 c4 8e b7 3f 51 9b 1d cf fa 27 ac 3f
       0.09202221969408336 0.05499252107875086
000120 34 af c7 6b ed 51 8d bf e3 2c 46 05 23 a8 b6 bf
       -0.014316420413670629 -0.08850306395304446
000130 9e ee 5e 2a 40 f1 c2 bf 33 91 23 c2 be b9 82 3f
       -0.1479873854531108 0.009143343257570357
000140 ea f1 05 4b 9c 99 8e 3f 21 db 8f 9d 9f 31 9f bf
       0.014941426314856582 -0.03046273612195727
000150 f4 53 e6 79 87 41 be bf 64 bd 4f 8f 37 a6 92 3f
       -0.1181873962980971 0.018212192651785655
000160 d5 8f b9 73 a9 7f 65 bf f6 6d 5a 0d 87 f8 a8 3f
       -0.0026243505106311273 0.048771114711794114
000170 4a 7a ca f9 0b c8 bb bf ad a7 31 4e 98 54 b6 3f
       -0.10852122162257519 0.08722831639320701
000180 81 70 07 65 b7 b3 c5 bf a4 33 16 7b 73 d1 87 bf
       -0.16954700882968513 -0.011629965013321648
000190 06 58 f4 61 c9 9d 9d bf 76 d0 af 85 31 c3 b6 bf
       -0.028922220805803554 -0.08891591562115927
0001a0 ac b7 d3 3d 64 67 b2 bf 8e 76 d9 d5 ac 0f a2 bf
       -0.07189013013314022 -0.03527584181277375
0001b0 7c 45 6d f8 7b a0 bc bf f2 f3 b6 5e 06 01 c1 bf
       -0.11182379546268878 -0.13284377693881272
0001c0 cb 4d 90 58 95 8a bc bf 7d 14 03 1b 73 e6 b2 bf
       -0.11148961460303679 -0.07382888230775282
0001d0 45 6b 65 a7 db 11 b6 bf b1 47 c8 d0 f6 0a 98 bf
       -0.08620999180622586 -0.023479324811041816
0001e0 e1 41 75 92 27 8d ab 3f bf b0 e6 62 18 a5 96 3f
       0.05381129896943882 0.022114163433500474
0001f0 96 25 6f 9c 93 95 9a bf 6b 4c c0 91 dd 27 b9 bf
       -0.025961214468940584 -0.09826454933527067
000200 90 68 31 04 31 e0 ab 3f 3e f9 cb b4 73 36 a6 bf
       0.054444820176926645 -0.04338418561927647
000210 96 84 f1 0e d8 c0 7c 3f af f3 b1 d3 11 9a b9 bf
       0.007019847848909985 -0.10000716608369829
000220 08 57 3a cf 8e ad 82 bf 79 41 bb 37 6f 18 b3 bf
       -0.009120097827046716 -0.07459159002906358
000230 87 5b a4 be 5f c3 97 bf fe 26 4e 6e 6f 2e c1 bf
       -0.02320623017393644 -0.13422959218978997
000240 8b 2f 9d 26 bb 6e b1 3f 68 a3 31 7e 8d c3 c0 bf
       0.06809587185597203 -0.1309677950078154
000250 ab fb c6 e4 ca b1 73 3f f7 1f ac fe 46 aa be bf
       0.004808228066791746 -0.11978572576128942
000260 76 bc d8 be 9d b3 a1 bf f7 bf ac 2f 18 b8 b3 3f
       -0.03457348780317997 0.07702780879912995
000270 64 6d ce 5b ff be ae bf 6f fa 74 09 14 8a bd bf
       -0.06005094524081292 -0.1153881571853874
000280 ce d3 ec 02 78 ee af 3f 4d db 43 3c f6 24 c1 bf
       0.06236624751765128 -0.13394048636083725
000290 0b de a6 30 5e 58 a4 bf 31 5b 5b 60 f6 c1 b0 3f
       -0.03973669380087238 0.06545963146650703
0002a0 0f 17 0d c9 35 e0 c0 bf fa 29 59 6c 4c 42 ac bf
       -0.13184234921407564 -0.0551933176289658
0002b0 71 d2 a2 00 d2 9f 67 3f 0a 97 7d 55 7b 97 c2 bf
       0.002883825455763316 -0.14524785684914604
0002c0 6b a4 21 06 35 a9 c0 bf 63 5d 55 d6 38 83 b9 bf
       -0.13016379165063383 -0.09965853913069149
0002d0 a4 b5 ac f6 e4 5f ba bf 08 ab 68 4a 7f 39 71 bf
       -0.10302573225336303 -0.00420522425569448
0002e0 0e 8a ca b3 89 1d b9 bf 81 f6 33 4d 62 9d bd bf
       -0.09810696258004034 -0.11568273911322004
0002f0 40 30 17 1c d4 25 b8 bf fd 33 6a 3b 1d 6f 92 3f
       -0.0943272179203527 0.018001991988558775
000300 d3 7d 1b 39 bd 52 b2 bf ba 3c 62 e0 a8 38 c0 bf
       -0.07157499927733761 -0.12672911602246534
000310 72 bf 58 09 24 38 60 bf cf 0d 87 4b 60 2d bc bf
       -0.001979895004090731 -0.11006738513884005
000320 0a 3e 7c 73 44 38 b1 3f 6c d0 3d f4 57 16 b7 3f
       0.0672648221918665 0.09018468583036715
000330 d3 e5 4a 5d eb 0c b7 bf fa 3f 48 c3 63 39 81 3f
       -0.09004088428164118 0.00841024341301021
000340 eb 4a 0c 70 93 fb b2 bf 90 a0 01 6e 5e bd 8b 3f
       -0.07415124402568167 0.013544786197784014
000350 3b c4 3c 45 50 bf a3 bf 4f 5b 5a 37 c5 8a ba bf
       -0.03856898160155039 -0.10367996789351007
000360 89 0c 86 80 8b 5d b0 bf 00 43 e7 6f 9a 8a ad 3f
       -0.06392738235267549 0.05769808403022658
000370 0f 09 2a f1 f6 83 99 3f 09 66 d1 a7 60 53 80 bf
       0.02491746756505458 -0.00797153007640629
000380 76 4d 2e ca e8 7a ba bf c7 34 36 a4 2c 1c b6 3f
       -0.10343794761711486 0.0863674069316459
000390 23 f9 df 98 f5 c2 ab bf 06 5d ce b7 2f 0d c1 bf
       -0.05422179690502762 -0.13321491694362225
0003a0 3d 87 45 fa 2d a9 bd bf b3 af 21 46 d9 bf af 3f
       -0.1158627258314739 0.062010564623818175
0003b0 f3 45 d6 e0 75 ce b1 3f 77 46 15 bf 12 77 c1 bf
       0.06955658663925827 -0.13644632654409225
0003c0 a9 04 75 54 9b f9 8f 3f e6 64 24 22 9f 90 b0 3f
       0.015612805857588024 0.06470675071286144
0003d0 43 e5 d4 b3 88 71 ad bf f4 2a 11 f1 2c 7d 6e bf
       -0.05750682063303227 -0.0037217977301556796
0003e0 95 22 cf 11 24 92 8c 3f 1c dc 92 f6 2f 06 b2 3f
       0.013950616639605765 0.070406911562586
0003f0 b4 23 44 60 54 50 be bf 87 48 77 0f 86 7b a0 3f
       -0.1184132323288754 0.0321924108390173
000400 2f 24 d5 1a 3c b1 b9 bf 0a ca 4c 40 5f ed b5 3f
       -0.10036063819019668 0.08565326042006674
000410 1f a7 46 6d 49 8b 90 3f ec 23 02 70 a4 36 a0 3f
       0.016156337065388656 0.03166688792504843
000420 1d aa f1 ae e6 c4 c1 bf 22 a7 49 27 fd 9a a0 bf
       -0.13882144491374585 -0.03243247131906758
000430 86 12 44 73 73 c0 a2 3f ac 87 9c 21 40 bb a0 3f
       0.03662453443579232 0.03267860803886377
000440 8f e7 1e 7e 4c 23 79 3f d8 5b c5 9c 1f 2f b3 bf
       0.0061371791834349395 -0.0749377973310027
000450 27 9c a7 49 2e fb a3 3f 05 63 88 0b be c4 c2 bf
       0.03902573250871227 -0.14662910044787494
000460 16 66 36 b2 ca 21 bd bf b2 cf fc df 66 1d 86 bf
       -0.1137968716706371 -0.010798267088467959
000470 a5 7f e9 b7 74 7e 9d 3f e8 4c d1 ce 6d 57 b6 3f
       0.02880270359526062 0.08727155970818823
000480 12 c1 7b 19 0c 98 98 bf 40 57 ec 88 f0 8d a2 3f
       -0.024017514281639292 0.03623916312623843
000490 41 b9 11 f0 c7 1c b4 3f 6a 2e e7 e9 3d 95 90 3f
       0.07856416331353434 0.016194312478360486
0004a0 d9 ad fc 32 b0 0e bf bf 83 db f9 09 b3 4f ae bf
       -0.12131787533569795 -0.059201807945036065
0004b0 85 a3 12 81 ec 2c b6 3f c1 64 57 c7 44 39 9f bf
       0.08662298346702187 -0.030491900126297326
0004c0 39 aa e5 62 d7 64 a8 bf fa 69 7e 63 a7 37 9c bf
       -0.04764435846557941 -0.027556052634830387
0004d0 f1 39 8b a2 ac 93 be bf 4b d9 2f 90 9e a8 b2 bf
       -0.11944083183627875 -0.07288542766750543
0004e0 02 c0 d4 7e 63 07 a3 bf f6 3e d1 56 e7 94 77 bf
       -0.037165745956713195 -0.005757239979246034
0004f0 61 01 93 e7 b8 cb 9b bf 60 36 4a 75 b6 73 ac 3f
       -0.02714432633797637 0.05557031804810886
000500 4a 72 08 e6 f4 da 94 3f bf ea 06 ae a3 24 af bf
       0.020366503276920057 -0.06082641124108567
000510 61 26 5c ed 7f 1b be bf 78 54 e1 76 dd 47 ba 3f
       -0.11760711235924638 0.10265907432888521
000520 97 1a c3 31 b2 47 b3 bf cd 02 27 c8 8a df a0 bf
       -0.07531274523635499 -0.03295549100176274
000530 89 51 3e 17 7d f1 a1 bf 89 35 66 6b 33 e5 4e bf
       -0.035045537078221285 -0.0009428502151408873
000540 d0 cc 8d 04 c5 f3 bc bf 37 83 6a 66 89 ca 83 bf
       -0.11309462891749722 -0.009663651884069686
000550 7c 13 19 aa 09 b6 b6 bf 78 42 bb 6e ea b9 98 3f
       -0.08871517565519399 0.0241467123112806
000560 f4 08 04 9b 51 86 c0 bf 14 8a c3 4e 93 31 bd 3f
       -0.12909908360604272 0.1140377108854767
000570 99 a2 11 5f df 4a b6 3f 46 2f d9 34 3c 1a 76 bf
       0.08707996436136013 -0.005396113568689581
000580 aa e5 3f 6d a7 4e ad 3f b0 86 6d 7e e0 3c b9 3f
       0.05724070747960337 0.09858515822045422
000590 76 06 bf 9d 69 57 b6 bf 5d 6a 57 9c b5 31 bd bf
       -0.08727130986428641 -0.11403975550585117
0005a0 67 35 82 b9 60 64 c2 bf ee 22 9d 9c 67 75 b9 bf
       -0.1436882882884831 -0.09944770406321954
0005b0 fb bf 8a 97 94 8a b8 3f 71 69 d5 09 a7 e8 c3 bf
       0.09586456966167127 -0.15553749065550052
0005c0 24 6d 40 f8 c4 25 a7 bf 01 3b 66 8f 34 c5 96 bf
       -0.045210032753141755 -0.022236653568650237
0005d0 bc 05 76 be 61 22 b2 bf c4 89 03 30 5a 02 c0 bf
       -0.07083712482383125 -0.1250717863504872
0005e0 84 2f 6f 43 69 ea b5 3f 2a c7 ff f6 99 f7 80 bf
       0.08560808082910226 -0.0082847622397569
0005f0 50 8a fe 30 01 16 a9 3f 97 7b 6a a4 d5 43 b4 bf
       0.048996007185696855 -0.07916007293759574
000600 f2 e8 cb 4b 37 b4 b6 3f bf 6d 5d 63 53 80 a2 bf
       0.08868737793446593 -0.03613529766036149
000610 91 3e 32 27 9f 1e a4 bf 69 63 ab fd 96 61 9c 3f
       -0.0392961249682432 0.027716025574452106
000620 32 30 6e 90 9c d5 b8 bf db 58 30 c5 48 26 ab 3f
       -0.09700945402272579 0.053026460715203526
000630 49 fd 41 34 82 02 9b 3f 30 1b d6 78 29 1a b7 3f
       0.02637675708728907 0.09024295044046649
000640 34 68 52 e6 7a ff b1 3f c2 7f fc 40 e3 32 ad 3f
       0.07030456660359691 0.05702886741914838
000650 58 52 b4 c1 9e c4 bf 3f 9a ef ed b7 0e fc a8 bf
       0.12409393529044033 -0.04879804606659306
000660 cd 80 eb c6 94 65 b5 bf 37 6c 1f 75 ba 34 b2 3f
       -0.08358125549739555 0.07111707076494232
000670 7f 7d 45 39 cd 8d a6 bf 80 ed 21 49 f2 5f b8 3f
       -0.044050610772269565 0.09521402631246723
000680 a7 94 6c 07 31 ee c0 3f c9 f1 06 06 55 52 a7 3f
       0.1322690283060741 0.045550019250615366
000690 70 57 f1 ef 76 5e ad 3f 57 1a c8 94 ab ea b8 bf
       0.057361332692990596 -0.09733078367580937
0006a0 3d ae cd d5 ad 8d a8 3f 94 12 0a cb 3c 47 a4 3f
       0.04795592532067559 0.03960599878795282
0006b0 5b b3 f7 dd 03 0c b7 bf 60 f2 dc e8 ec a9 85 bf
       -0.09002708596353896 -0.010578013283173593
0006c0 ab 69 aa 1f a3 54 96 3f 72 b5 f6 e8 9d 8e be 3f
       0.021807240302771962 0.11936366021719438
0006d0 4f 85 27 7d 67 60 c2 3f 53 e8 0b dc ba d9 9b 3f
       0.14356702433637245 0.027197761231015537
0006e0 94 94 2f 38 e9 38 a7 bf 68 b2 ef c2 19 67 bf 3f
       -0.04535607157576141 0.12266694077670481
0006f0 71 46 cd 45 54 ff b6 3f 32 03 29 7c 5e 80 c1 3f
       0.08983351425310972 0.13673001348981867
000700 42 5c 96 f9 29 07 b4 bf 8b 0b c7 6c 20 89 93 bf
       -0.07823431342545553 -0.01907778419423382
000710 36 20 cd 0d 9a 26 ac 3f c1 85 4f 67 80 f9 b8 bf
       0.054982008156514814 -0.09755709192497532
000720 40 f8 f5 2a 2f b8 bf 3f 1d 07 9a 40 26 44 b3 3f
       0.12390417860839964 0.07525862767400011
000730 cb 44 c9 c0 a1 a2 b7 bf a9 d8 84 14 bf 3a 88 3f
       -0.09232531506247026 0.011830799878776626
000740 25 2e 07 89 31 1c b3 bf b0 a1 39 91 e3 c1 ba 3f
       -0.07464894862567258 0.10452101035628547
000750 b2 3c 02 cf 7a 6f a6 3f 32 6c 91 22 33 13 a0 3f
       0.04381927277528898 0.031396482438787024
000760 4d 9f 34 04 55 2a b7 bf b0 dd 11 f7 72 06 91 3f
       -0.09048968651461316 0.016626163797324345
000770 bc dc 48 de da 05 93 bf dc 5f 97 c5 a3 9e 85 3f
       -0.018577022378136063 0.010556487529285556
000780 f3 e0 94 d2 9d 42 c0 3f 98 f4 25 a4 16 02 b0 bf
       0.1270329740743886 -0.0625318670990559
000790 9d 31 2a a9 eb 66 b7 bf fd 63 0d b4 4b e6 a5 3f
       -0.09141419296265103 0.042772641877213836
0007a0 08 8c 2e 03 29 18 99 bf 4e 7d f0 4a e5 fa 9d bf
       -0.024506226367190492 -0.029277403544367524
0007b0 51 42 4d 5c 9d ac ad 3f 26 7c 2b fd 9f 30 bc 3f
       0.057957570569332824 0.11011695795922147
0007c0 2a 1c a6 39 9c b5 b9 3f d4 aa e3 3a 3a 2a b7 3f
       0.10042740256732033 0.0904880899212615
0007d0 60 0c 67 e4 b7 0a c0 3f f1 14 b7 e7 32 d4 b6 3f
       0.12532709743945514 0.08917539746387938
0007e0 81 d9 93 1d 4d 17 9e bf 62 52 1f 95 79 bc c1 3f
       -0.02938576214816058 0.1385642984520415
0007f0 b2 12 2c ba 79 b0 b8 3f f5 af f9 21 73 5c ac bf
       0.09644280238360173 -0.05539283551919986

condition_proj_layers.2.bias f8 [8]
000000 0e e6 42 e2 17 ec c3 bf 98 84 67 8b 03 5a ab bf
       -0.15564249561229854 -0.05342112614358391
000010 3b 43 ac da 86 94 8e 3f b7 e4 af da 93 1e b9 3f
       0.01493172983967527 0.09812282647171143
000020 fc d5 5f b2 dc a4 a5 bf 08 87 aa a7 86 6a c1 3f
       -0.04227342297955869 0.13606341540167244
000030 c4 ee b3 07 97 60 b4 3f 78 a1 b7 88 b5 6f c6 bf
       0.07959884584482341 -0.17528409171724113
